name: "VGG_ILSVRC_16_layers"

input: "dataa"
input_shape {
  dim: 1
  dim: 3
  dim: 224
  dim: 224
}
input: "datab"
input_shape {
  dim: 1
  dim: 15
  dim: 224
  dim: 224
}
input: "im_info"
input_shape {
  dim: 1
  dim: 3
}


layer {
  name: "conv1_1a"
  type: "Convolution"
  bottom: "dataa"
  top: "conv1_1a"
  param {
    lr_mult: 0
    decay_mult: 0
  }
  param {
    lr_mult: 0
    decay_mult: 0
  }
  convolution_param {
    num_output: 64
    pad: 1
    kernel_size: 3
  }
}
layer {
  name: "relu1_1a"
  type: "ReLU"
  bottom: "conv1_1a"
  top: "conv1_1a"
}
layer {
  name: "conv1_2a"
  type: "Convolution"
  bottom: "conv1_1a"
  top: "conv1_2a"
  param {
    lr_mult: 0
    decay_mult: 0
  }
  param {
    lr_mult: 0
    decay_mult: 0
  }
  convolution_param {
    num_output: 64
    pad: 1
    kernel_size: 3
  }
}
layer {
  name: "relu1_2a"
  type: "ReLU"
  bottom: "conv1_2a"
  top: "conv1_2a"
}
layer {
  name: "pool1a"
  type: "Pooling"
  bottom: "conv1_2a"
  top: "pool1a"
  pooling_param {
    pool: MAX
    kernel_size: 2
    stride: 2
  }
}
layer {
  name: "conv2_1a"
  type: "Convolution"
  bottom: "pool1a"
  top: "conv2_1a"
  param {
    lr_mult: 0
    decay_mult: 0
  }
  param {
    lr_mult: 0
    decay_mult: 0
  }
  convolution_param {
    num_output: 128
    pad: 1
    kernel_size: 3
  }
}
layer {
  name: "relu2_1a"
  type: "ReLU"
  bottom: "conv2_1a"
  top: "conv2_1a"
}
layer {
  name: "conv2_2a"
  type: "Convolution"
  bottom: "conv2_1a"
  top: "conv2_2a"
  param {
    lr_mult: 0
    decay_mult: 0
  }
  param {
    lr_mult: 0
    decay_mult: 0
  }
  convolution_param {
    num_output: 128
    pad: 1
    kernel_size: 3
  }
}
layer {
  name: "relu2_2a"
  type: "ReLU"
  bottom: "conv2_2a"
  top: "conv2_2a"
}
layer {
  name: "pool2a"
  type: "Pooling"
  bottom: "conv2_2a"
  top: "pool2a"
  pooling_param {
    pool: MAX
    kernel_size: 2
    stride: 2
  }
}
layer {
  name: "conv3_1a"
  type: "Convolution"
  bottom: "pool2a"
  top: "conv3_1a"
  param {
    lr_mult: 1
  }
  param {
    lr_mult: 2
  }
  convolution_param {
    num_output: 256
    pad: 1
    kernel_size: 3
  }
}
layer {
  name: "relu3_1a"
  type: "ReLU"
  bottom: "conv3_1a"
  top: "conv3_1a"
}
layer {
  name: "conv3_2a"
  type: "Convolution"
  bottom: "conv3_1a"
  top: "conv3_2a"
  param {
    lr_mult: 1
  }
  param {
    lr_mult: 2
  }
  convolution_param {
    num_output: 256
    pad: 1
    kernel_size: 3
  }
}
layer {
  name: "relu3_2a"
  type: "ReLU"
  bottom: "conv3_2a"
  top: "conv3_2a"
}
layer {
  name: "conv3_3a"
  type: "Convolution"
  bottom: "conv3_2a"
  top: "conv3_3a"
  param {
    lr_mult: 1
  }
  param {
    lr_mult: 2
  }
  convolution_param {
    num_output: 256
    pad: 1
    kernel_size: 3
  }
}
layer {
  name: "relu3_3a"
  type: "ReLU"
  bottom: "conv3_3a"
  top: "conv3_3a"
}
layer {
  name: "pool3a"
  type: "Pooling"
  bottom: "conv3_3a"
  top: "pool3a"
  pooling_param {
    pool: MAX
    kernel_size: 2
    stride: 2
  }
}
layer {
  name: "conv4_1a"
  type: "Convolution"
  bottom: "pool3a"
  top: "conv4_1a"
  param {
    lr_mult: 1
  }
  param {
    lr_mult: 2
  }
  convolution_param {
    num_output: 512
    pad: 1
    kernel_size: 3
  }
}
layer {
  name: "relu4_1a"
  type: "ReLU"
  bottom: "conv4_1a"
  top: "conv4_1a"
}
layer {
  name: "conv4_2a"
  type: "Convolution"
  bottom: "conv4_1a"
  top: "conv4_2a"
  param {
    lr_mult: 1
  }
  param {
    lr_mult: 2
  }
  convolution_param {
    num_output: 512
    pad: 1
    kernel_size: 3
  }
}
layer {
  name: "relu4_2a"
  type: "ReLU"
  bottom: "conv4_2a"
  top: "conv4_2a"
}
layer {
  name: "conv4_3a"
  type: "Convolution"
  bottom: "conv4_2a"
  top: "conv4_3a"
  param {
    lr_mult: 1
  }
  param {
    lr_mult: 2
  }
  convolution_param {
    num_output: 512
    pad: 1
    kernel_size: 3
  }
}
layer {
  name: "relu4_3a"
  type: "ReLU"
  bottom: "conv4_3a"
  top: "conv4_3a"
}
layer {
  name: "pool4a"
  type: "Pooling"
  bottom: "conv4_3a"
  top: "pool4a"
  pooling_param {
    pool: MAX
    kernel_size: 2
    stride: 2
  }
}
layer {
  name: "conv5_1a"
  type: "Convolution"
  bottom: "pool4a"
  top: "conv5_1a"
  param {
    lr_mult: 1
  }
  param {
    lr_mult: 2
  }
  convolution_param {
    num_output: 512
    pad: 1
    kernel_size: 3
  }
}
layer {
  name: "relu5_1a"
  type: "ReLU"
  bottom: "conv5_1a"
  top: "conv5_1a"
}
layer {
  name: "conv5_2a"
  type: "Convolution"
  bottom: "conv5_1a"
  top: "conv5_2a"
  param {
    lr_mult: 1
  }
  param {
    lr_mult: 2
  }
  convolution_param {
    num_output: 512
    pad: 1
    kernel_size: 3
  }
}
layer {
  name: "relu5_2a"
  type: "ReLU"
  bottom: "conv5_2a"
  top: "conv5_2a"
}
layer {
  name: "conv5_3a"
  type: "Convolution"
  bottom: "conv5_2a"
  top: "conv5_3a"
  param {
    lr_mult: 1
  }
  param {
    lr_mult: 2
  }
  convolution_param {
    num_output: 512
    pad: 1
    kernel_size: 3
  }
}
layer {
  name: "relu5_3"
  type: "ReLU"
  bottom: "conv5_3a"
  top: "conv5_3a"
}

layer {
  name: "conv1_1b"
  type: "Convolution"
  bottom: "datab"
  top: "conv1_1b"
  param {
    lr_mult: 0
    decay_mult: 0
  }
  param {
    lr_mult: 0
    decay_mult: 0
  }
  convolution_param {
    num_output: 64
    pad: 1
    kernel_size: 3
  }
}
layer {
  name: "relu1_1b"
  type: "ReLU"
  bottom: "conv1_1b"
  top: "conv1_1b"
}
layer {
  name: "conv1_2b"
  type: "Convolution"
  bottom: "conv1_1b"
  top: "conv1_2b"
  param {
    lr_mult: 0
    decay_mult: 0
  }
  param {
    lr_mult: 0
    decay_mult: 0
  }
  convolution_param {
    num_output: 64
    pad: 1
    kernel_size: 3
  }
}
layer {
  name: "relu1_2b"
  type: "ReLU"
  bottom: "conv1_2b"
  top: "conv1_2b"
}
layer {
  name: "pool1b"
  type: "Pooling"
  bottom: "conv1_2b"
  top: "pool1b"
  pooling_param {
    pool: MAX
    kernel_size: 2
    stride: 2
  }
}
layer {
  name: "conv2_1b"
  type: "Convolution"
  bottom: "pool1b"
  top: "conv2_1b"
  param {
    lr_mult: 0
    decay_mult: 0
  }
  param {
    lr_mult: 0
    decay_mult: 0
  }
  convolution_param {
    num_output: 128
    pad: 1
    kernel_size: 3
  }
}
layer {
  name: "relu2_1b"
  type: "ReLU"
  bottom: "conv2_1b"
  top: "conv2_1b"
}
layer {
  name: "conv2_2b"
  type: "Convolution"
  bottom: "conv2_1b"
  top: "conv2_2b"
  param {
    lr_mult: 0
    decay_mult: 0
  }
  param {
    lr_mult: 0
    decay_mult: 0
  }
  convolution_param {
    num_output: 128
    pad: 1
    kernel_size: 3
  }
}
layer {
  name: "relu2_2b"
  type: "ReLU"
  bottom: "conv2_2b"
  top: "conv2_2b"
}
layer {
  name: "pool2b"
  type: "Pooling"
  bottom: "conv2_2b"
  top: "pool2b"
  pooling_param {
    pool: MAX
    kernel_size: 2
    stride: 2
  }
}
layer {
  name: "conv3_1b"
  type: "Convolution"
  bottom: "pool2b"
  top: "conv3_1b"
  param {
    lr_mult: 1
  }
  param {
    lr_mult: 2
  }
  convolution_param {
    num_output: 256
    pad: 1
    kernel_size: 3
  }
}
layer {
  name: "relu3_1b"
  type: "ReLU"
  bottom: "conv3_1b"
  top: "conv3_1b"
}
layer {
  name: "conv3_2b"
  type: "Convolution"
  bottom: "conv3_1b"
  top: "conv3_2b"
  param {
    lr_mult: 1
  }
  param {
    lr_mult: 2
  }
  convolution_param {
    num_output: 256
    pad: 1
    kernel_size: 3
  }
}
layer {
  name: "relu3_2b"
  type: "ReLU"
  bottom: "conv3_2b"
  top: "conv3_2b"
}
layer {
  name: "conv3_3b"
  type: "Convolution"
  bottom: "conv3_2b"
  top: "conv3_3b"
  param {
    lr_mult: 1
  }
  param {
    lr_mult: 2
  }
  convolution_param {
    num_output: 256
    pad: 1
    kernel_size: 3
  }
}
layer {
  name: "relu3_3b"
  type: "ReLU"
  bottom: "conv3_3b"
  top: "conv3_3b"
}
layer {
  name: "pool3b"
  type: "Pooling"
  bottom: "conv3_3b"
  top: "pool3b"
  pooling_param {
    pool: MAX
    kernel_size: 2
    stride: 2
  }
}
layer {
  name: "conv4_1b"
  type: "Convolution"
  bottom: "pool3b"
  top: "conv4_1b"
  param {
    lr_mult: 1
  }
  param {
    lr_mult: 2
  }
  convolution_param {
    num_output: 512
    pad: 1
    kernel_size: 3
  }
}
layer {
  name: "relu4_1b"
  type: "ReLU"
  bottom: "conv4_1b"
  top: "conv4_1b"
}
layer {
  name: "conv4_2b"
  type: "Convolution"
  bottom: "conv4_1b"
  top: "conv4_2b"
  param {
    lr_mult: 1
  }
  param {
    lr_mult: 2
  }
  convolution_param {
    num_output: 512
    pad: 1
    kernel_size: 3
  }
}
layer {
  name: "relu4_2b"
  type: "ReLU"
  bottom: "conv4_2b"
  top: "conv4_2b"
}
layer {
  name: "conv4_3b"
  type: "Convolution"
  bottom: "conv4_2b"
  top: "conv4_3b"
  param {
    lr_mult: 1
  }
  param {
    lr_mult: 2
  }
  convolution_param {
    num_output: 512
    pad: 1
    kernel_size: 3
  }
}
layer {
  name: "relu4_3b"
  type: "ReLU"
  bottom: "conv4_3b"
  top: "conv4_3b"
}
layer {
  name: "pool4b"
  type: "Pooling"
  bottom: "conv4_3b"
  top: "pool4b"
  pooling_param {
    pool: MAX
    kernel_size: 2
    stride: 2
  }
}
layer {
  name: "conv5_1b"
  type: "Convolution"
  bottom: "pool4b"
  top: "conv5_1b"
  param {
    lr_mult: 1
  }
  param {
    lr_mult: 2
  }
  convolution_param {
    num_output: 512
    pad: 1
    kernel_size: 3
  }
}
layer {
  name: "relu5_1b"
  type: "ReLU"
  bottom: "conv5_1b"
  top: "conv5_1b"
}
layer {
  name: "conv5_2b"
  type: "Convolution"
  bottom: "conv5_1b"
  top: "conv5_2b"
  param {
    lr_mult: 1
  }
  param {
    lr_mult: 2
  }
  convolution_param {
    num_output: 512
    pad: 1
    kernel_size: 3
  }
}
layer {
  name: "relu5_2b"
  type: "ReLU"
  bottom: "conv5_2b"
  top: "conv5_2b"
}
layer {
  name: "conv5_3b"
  type: "Convolution"
  bottom: "conv5_2b"
  top: "conv5_3b"
  param {
    lr_mult: 1
  }
  param {
    lr_mult: 2
  }
  convolution_param {
    num_output: 512
    pad: 1
    kernel_size: 3
  }
}
layer {
  name: "relu5_3b"
  type: "ReLU"
  bottom: "conv5_3b"
  top: "conv5_3b"
}

#========= RPN ============
# vic ask
layer {
  name: "rpn_conv/3x3a"
  type: "Convolution"
  bottom: "conv5_3a"
  top: "rpn/outputa"
  param { lr_mult: 1.0 }
  param { lr_mult: 2.0 }
  convolution_param {
    num_output: 512
    kernel_size: 3 pad: 1 stride: 1
    weight_filler { type: "gaussian" std: 0.01 }
    bias_filler { type: "constant" value: 0 }
  }
}
layer {
  name: "rpn_relu/3x3a"
  type: "ReLU"
  bottom: "rpn/outputa"
  top: "rpn/outputa"
}

# vic ask 
layer {
  name: "rpn_cls_scorea"
  type: "Convolution"
  bottom: "rpn/outputa"
  top: "rpn_cls_scorea"
  param { lr_mult: 1.0 }
  param { lr_mult: 2.0 }
  convolution_param {
    num_output: 18   # 2(bg/fg) * 9(anchors)
    kernel_size: 1 pad: 0 stride: 1
    weight_filler { type: "gaussian" std: 0.01 }
    bias_filler { type: "constant" value: 0 }
  }
}

layer {
  name: "rpn_bbox_preda"
  type: "Convolution"
  bottom: "rpn/outputa"
  top: "rpn_bbox_preda"
  param { lr_mult: 1.0 }
  param { lr_mult: 2.0 }
  convolution_param {
    num_output: 36   # 4 * 9(anchors)
    kernel_size: 1 pad: 0 stride: 1
    weight_filler { type: "gaussian" std: 0.01 }
    bias_filler { type: "constant" value: 0 }
  }
}

layer {
   bottom: "rpn_cls_scorea"
   top: "rpn_cls_score_reshapea"
   name: "rpn_cls_score_reshapea"
   type: "Reshape"
   reshape_param { shape { dim: 0 dim: 2 dim: -1 dim: 0 } }
}

# vic ask 
layer {
  name: "rpn_conv/3x3b"
  type: "Convolution"
  bottom: "conv5_3b"
  top: "rpn/outputb"
  param { lr_mult: 1.0 }
  param { lr_mult: 2.0 }
  convolution_param {
    num_output: 512
    kernel_size: 3 pad: 1 stride: 1
    weight_filler { type: "gaussian" std: 0.01 }
    bias_filler { type: "constant" value: 0 }
  }
}
layer {
  name: "rpn_relu/3x3b"
  type: "ReLU"
  bottom: "rpn/outputb"
  top: "rpn/outputb"
}
# vic ask 
layer {
  name: "rpn_cls_scoreb"
  type: "Convolution"
  bottom: "rpn/outputb"
  top: "rpn_cls_scoreb"
  param { lr_mult: 1.0 }
  param { lr_mult: 2.0 }
  convolution_param {
    num_output: 18   # 2(bg/fg) * 9(anchors)
    kernel_size: 1 pad: 0 stride: 1
    weight_filler { type: "gaussian" std: 0.01 }
    bias_filler { type: "constant" value: 0 }
  }
}
layer {
  name: "rpn_bbox_predb"
  type: "Convolution"
  bottom: "rpn/outputb"
  top: "rpn_bbox_predb"
  param { lr_mult: 1.0 }
  param { lr_mult: 2.0 }
  convolution_param {
    num_output: 36   # 4 * 9(anchors)
    kernel_size: 1 pad: 0 stride: 1
    weight_filler { type: "gaussian" std: 0.01 }
    bias_filler { type: "constant" value: 0 }
  }
}

layer {
   bottom: "rpn_cls_scoreb"
   top: "rpn_cls_score_reshapeb"
   name: "rpn_cls_score_reshapeb"
   type: "Reshape"
   reshape_param { shape { dim: 0 dim: 2 dim: -1 dim: 0 } }
}

#========= RoI Proposal ============
layer {
  name: "rpn_cls_proba"
  type: "Softmax"
  bottom: "rpn_cls_score_reshapea"
  top: "rpn_cls_proba"
}
layer {
  name: 'rpn_cls_prob_reshapea'
  type: 'Reshape'
  bottom: 'rpn_cls_proba'
  top: 'rpn_cls_prob_reshapea'
  reshape_param { shape { dim: 0 dim: 18 dim: -1 dim: 0 } }
}
layer {
  name: 'proposala'
  type: 'Python'
  bottom: 'rpn_cls_prob_reshapea'
  bottom: 'rpn_bbox_preda'
  bottom: 'im_info' # vic changes??
  top: 'rpn_roisa'
#  top: 'rpn_scores'
  python_param {
    module: 'rpn.proposal_layer'
    layer: 'ProposalLayer'
    param_str: "'feat_stride': 16"
  }
}
layer {
  name: "rpn_cls_probb"
  type: "Softmax"
  bottom: "rpn_cls_score_reshapeb"
  top: "rpn_cls_probb"
}

layer {
  name: 'rpn_cls_prob_reshapeb'
  type: 'Reshape'
  bottom: 'rpn_cls_probb'
  top: 'rpn_cls_prob_reshapeb'
  reshape_param { shape { dim: 0 dim: 18 dim: -1 dim: 0 } }
}

layer {
  name: 'proposalb'
  type: 'Python'
  bottom: 'rpn_cls_prob_reshapeb'
  bottom: 'rpn_bbox_predb'
  bottom: 'im_info' 
  top: 'rpn_roisb'
#  top: 'rpn_scores'
  python_param {
    module: 'rpn.proposal_layer'
    layer: 'ProposalLayer'
    param_str: "'feat_stride': 16"
  }
}
layer{
  name: 'roi_fusion'
  type: "Concat"
  bottom: 'rpn_roisa'
  bottom: 'rpn_roisb'
  top: 'rois'
  concat_param {
    axis: 0 # vic FIX-ME
  }
}


#========= RCNN ============

layer {
  name: "roi_pool5a"
  type: "ROIPooling"
  bottom: "conv5_3a"
  bottom: "rois"
  top: "pool5a"
  roi_pooling_param {
    pooled_w: 7
    pooled_h: 7
    spatial_scale: 0.0625 # 1/16
  }
}
layer {
  name: "fc6a"
  type: "InnerProduct"
  bottom: "pool5a"
  top: "fc6a"
  param {
    lr_mult: 1
  }
  param {
    lr_mult: 2
  }
  inner_product_param {
    num_output: 4096
  }
}
layer {
  name: "relu6a"
  type: "ReLU"
  bottom: "fc6a"
  top: "fc6a"
}
layer {
  name: "fc7a"
  type: "InnerProduct"
  bottom: "fc6a"
  top: "fc7a"
  param {
    lr_mult: 1
  }
  param {
    lr_mult: 2
  }
  inner_product_param {
    num_output: 4096
  }
}
layer {
  name: "relu7a"
  type: "ReLU"
  bottom: "fc7a"
  top: "fc7a"
}
layer {
  name: "drop7a"
  type: "Dropout"
  bottom: "fc7a"
  top: "fc7a"
  dropout_param {
    dropout_ratio: 0.5
  }
}

layer {
  name: "cls_scorea"
  type: "InnerProduct"
  bottom: "fc7a"
  top: "cls_scorea"
  param {
    lr_mult: 1
  }
  param {
    lr_mult: 2
  }
  inner_product_param {
    num_output: 25
    weight_filler {
      type: "gaussian"
      std: 0.01
    }
    bias_filler {
      type: "constant"
      value: 0
    }
  }
}
layer {
  name: "bbox_preda"
  type: "InnerProduct"
  bottom: "fc7a"
  top: "bbox_preda"
  param {
    lr_mult: 1
  }
  param {
    lr_mult: 2
  }
  inner_product_param {
    num_output: 100 #21*4
    weight_filler {
      type: "gaussian"
      std: 0.001
    }
    bias_filler {
      type: "constant"
      value: 0
    }
  }
}


layer {
  name: "roi_pool5b"
  type: "ROIPooling"
  bottom: "conv5_3b"
  bottom: "rois"
  top: "pool5b"
  roi_pooling_param {
    pooled_w: 7
    pooled_h: 7
    spatial_scale: 0.0625 # 1/16
  }
}
layer {
  name: "fc6b"
  type: "InnerProduct"
  bottom: "pool5b"
  top: "fc6b"
  param {
    lr_mult: 1
  }
  param {
    lr_mult: 2
  }
  inner_product_param {
    num_output: 4096
  }
}
layer {
  name: "relu6b"
  type: "ReLU"
  bottom: "fc6b"
  top: "fc6b"
}
layer {
  name: "fc7b"
  type: "InnerProduct"
  bottom: "fc6b"
  top: "fc7b"
  param {
    lr_mult: 1
  }
  param {
    lr_mult: 2
  }
  inner_product_param {
    num_output: 4096
  }
}
layer {
  name: "relu7b"
  type: "ReLU"
  bottom: "fc7b"
  top: "fc7b"
}
layer {
  name: "drop7b"
  type: "Dropout"
  bottom: "fc7b"
  top: "fc7b"
  dropout_param {
    dropout_ratio: 0.5
  }
}

layer {
  name: "cls_scoreb"
  type: "InnerProduct"
  bottom: "fc7b"
  top: "cls_scoreb"
  param {
    lr_mult: 1
  }
  param {
    lr_mult: 2
  }
  inner_product_param {
    num_output: 25
    weight_filler {
      type: "gaussian"
      std: 0.01
    }
    bias_filler {
      type: "constant"
      value: 0
    }
  }
}
layer {
  name: "bbox_predb"
  type: "InnerProduct"
  bottom: "fc7b"
  top: "bbox_predb"
  param {
    lr_mult: 1
  }
  param {
    lr_mult: 2
  }
  inner_product_param {
    num_output: 100 #21*4
    weight_filler {
      type: "gaussian"
      std: 0.001
    }
    bias_filler {
      type: "constant"
      value: 0
    }
  }
}

layer {
  name: "cls_proba"
  type: "Softmax"
  bottom: "cls_scorea"
  top: "cls_proba"
}
layer {
  name: "cls_probb"
  type: "Softmax"
  bottom: "cls_scoreb"
  top: "cls_probb"
}